{"weightsManifest":[{"paths":["face_recognition_model-shard1.bin","face_recognition_model-shard2.bin"],"weights":[{"name":"conv1/kernel","shape":[3,3,3,32],"dtype":"float32"},{"name":"conv1/bias","shape":[32],"dtype":"float32"}]}, {"paths":["face_recognition_model-shard3.bin"],"weights":[{"name":"fc/weights","shape":[256,128],"dtype":"float32"},{"name":"fc/bias","shape":[128],"dtype":"float32"}]}]}